…
e user via `torch.serialization.add_safe_globals`. We recommend you start setting `weights_only=True` for any use case where you don't have full control of the loaded file. Please open an issue on GitHub for any issues related to this experimental feature.
  state = torch.load(ckpt, map_location=torch.device("cpu"))
[08:32:37.894977] [LPIPS] Loaded pretrained weights from /ocean/projects/cis250277p/dsilva3/JiT/src/torch-fidelity/disc/.caches/vgg.pth
[08:32:37.895449] Model = Denoiser(
  (net): DINOv2Diffuser(
    (backbone): DinoVisionTransformer(
      (patch_embed): PatchEmbed(
        (proj): Conv2d(3, 768, kernel_size=(14, 14), stride=(14, 14))
        (norm): Identity()
      )
      (blocks): ModuleList(
        (0-11): 12 x NestedTensorBlock(
          (norm1): LayerNorm((768,), eps=1e-06, elementwise_affine=True)
          (attn): MemEffAttention(
            (qkv): Linear(in_features=768, out_features=2304, bias=True)
            (proj): Linear(in_features=768, out_features=768, bias=True)
            (proj_drop): Dropout(p=0.0, inplace=False)
          )
          (ls1): LayerScale()
          (drop_path1): Identity()
          (norm2): LayerNorm((768,), eps=1e-06, elementwise_affine=True)
          (mlp): Mlp(
            (fc1): Linear(in_features=768, out_features=3072, bias=True)
            (act): GELU(approximate='none')
            (fc2): Linear(in_features=3072, out_features=768, bias=True)
            (drop): Dropout(p=0.0, inplace=False)
          )
          (ls2): LayerScale()
          (drop_path2): Identity()
        )
      )
      (norm): LayerNorm((768,), eps=1e-06, elementwise_affine=False)
      (head): Identity()
    )
    (t_embedder): TimestepEmbedder(
      (mlp): Sequential(
        (0): Linear(in_features=256, out_features=768, bias=True)
        (1): SiLU()
        (2): Linear(in_features=768, out_features=768, bias=True)
      )
    )
    (y_embedder): LabelEmbedder(
      (embedding_table): Embedding(1001, 768)
    )
    (decoder): GeneralDecoder(
      (decoder_embed): Linear(in_features=768, out_features=1152, bias=True)
      (decoder_layers): ModuleList(
        (0-27): 28 x ViTMAELayer(
          (attention): ViTMAEAttention(
            (attention): ViTMAESelfAttention(
              (query): Linear(in_features=1152, out_features=1152, bias=True)
              (key): Linear(in_features=1152, out_features=1152, bias=True)
              (value): Linear(in_features=1152, out_features=1152, bias=True)
              (dropout): Dropout(p=0.0, inplace=False)
            )
            (output): ViTMAESelfOutput(
              (dense): Linear(in_features=1152, out_features=1152, bias=True)
              (dropout): Dropout(p=0.0, inplace=False)
            )
          )
          (intermediate): ViTMAEIntermediate(
            (dense): Linear(in_features=1152, out_features=4096, bias=True)
            (intermediate_act_fn): GELUActivation()
          )
          (output): ViTMAEOutput(
            (dense): Linear(in_features=4096, out_features=1152, bias=True)
            (dropout): Dropout(p=0.0, inplace=False)
          )
          (layernorm_before): LayerNorm((1152,), eps=1e-12, elementwise_affine=True)
          (layernorm_after): LayerNorm((1152,), eps=1e-12, elementwise_affine=True)
        )
      )
      (decoder_norm): LayerNorm((1152,), eps=1e-12, elementwise_affine=True)
      (decoder_pred): Linear(in_features=1152, out_features=768, bias=True)
    )
    (mask_head): Linear(in_features=768, out_features=1, bias=True)
  )
  (teacher_model): DINOv2Diffuser(
    (backbone): DinoVisionTransformer(
      (patch_embed): PatchEmbed(
        (proj): Conv2d(3, 768, kernel_size=(14, 14), stride=(14, 14))
        (norm): Identity()
      )
      (blocks): ModuleList(
        (0-11): 12 x NestedTensorBlock(
          (norm1): LayerNorm((768,), eps=1e-06, elementwise_affine=True)
          (attn): MemEffAttention(
            (qkv): Linear(in_features=768, out_features=2304, bias=True)
            (proj): Linear(in_features=768, out_features=768, bias=True)
            (proj_drop): Dropout(p=0.0, inplace=False)
          )
          (ls1): LayerScale()
          (drop_path1): Identity()
          (norm2): LayerNorm((768,), eps=1e-06, elementwise_affine=True)
          (mlp): Mlp(
            (fc1): Linear(in_features=768, out_features=3072, bias=True)
            (act): GELU(approximate='none')
            (fc2): Linear(in_features=3072, out_features=768, bias=True)
            (drop): Dropout(p=0.0, inplace=False)
          )
          (ls2): LayerScale()
          (drop_path2): Identity()
        )
      )
      (norm): LayerNorm((768,), eps=1e-06, elementwise_affine=False)
      (head): Identity()
    )
    (t_embedder): TimestepEmbedder(
      (mlp): Sequential(
        (0): Linear(in_features=256, out_features=768, bias=True)
        (1): SiLU()
        (2): Linear(in_features=768, out_features=768, bias=True)
      )
    )
    (y_embedder): LabelEmbedder(
      (embedding_table): Embedding(1001, 768)
    )
    (decoder): GeneralDecoder(
      (decoder_embed): Linear(in_features=768, out_features=1152, bias=True)
      (decoder_layers): ModuleList(
        (0-27): 28 x ViTMAELayer(
          (attention): ViTMAEAttention(
            (attention): ViTMAESelfAttention(
              (query): Linear(in_features=1152, out_features=1152, bias=True)
              (key): Linear(in_features=1152, out_features=1152, bias=True)
              (value): Linear(in_features=1152, out_features=1152, bias=True)
              (dropout): Dropout(p=0.0, inplace=False)
            )
            (output): ViTMAESelfOutput(
              (dense): Linear(in_features=1152, out_features=1152, bias=True)
              (dropout): Dropout(p=0.0, inplace=False)
            )
          )
          (intermediate): ViTMAEIntermediate(
            (dense): Linear(in_features=1152, out_features=4096, bias=True)
            (intermediate_act_fn): GELUActivation()
          )
          (output): ViTMAEOutput(
            (dense): Linear(in_features=4096, out_features=1152, bias=True)
            (dropout): Dropout(p=0.0, inplace=False)
          )
          (layernorm_before): LayerNorm((1152,), eps=1e-12, elementwise_affine=True)
          (layernorm_after): LayerNorm((1152,), eps=1e-12, elementwise_affine=True)
        )
      )
      (decoder_norm): LayerNorm((1152,), eps=1e-12, elementwise_affine=True)
      (decoder_pred): Linear(in_features=1152, out_features=768, bias=True)
    )
    (mask_head): Linear(in_features=768, out_features=1, bias=True)
  )
  (lpips_model): LPIPS(
    (scaling_layer): ScalingLayer()
    (net): VGG16FeatureExtractor(
      (slice1): Sequential(
        (0): Conv2d(3, 64, kernel_size=(3, 3), stride=(1, 1), padding=(1, 1))
        (1): ReLU(inplace=True)
        (2): Conv2d(64, 64, kernel_size=(3, 3), stride=(1, 1), padding=(1, 1))
        (3): ReLU(inplace=True)
      )
      (slice2): Sequential(
        (0): MaxPool2d(kernel_size=2, stride=2, padding=0, dilation=1, ceil_mode=False)
        (1): Conv2d(64, 128, kernel_size=(3, 3), stride=(1, 1), padding=(1, 1))
        (2): ReLU(inplace=True)
        (3): Conv2d(128, 128, kernel_size=(3, 3), stride=(1, 1), padding=(1, 1))
        (4): ReLU(inplace=True)
      )
      (slice3): Sequential(
        (0): MaxPool2d(kernel_size=2, stride=2, padding=0, dilation=1, ceil_mode=False)
        (1): Conv2d(128, 256, kernel_size=(3, 3), stride=(1, 1), padding=(1, 1))
        (2): ReLU(inplace=True)
        (3): Conv2d(256, 256, kernel_size=(3, 3), stride=(1, 1), padding=(1, 1))
        (4): ReLU(inplace=True)
        (5): Conv2d(256, 256, kernel_size=(3, 3), stride=(1, 1), padding=(1, 1))
        (6): ReLU(inplace=True)
      )
      (slice4): Sequential(
        (0): MaxPool2d(kernel_size=2, stride=2, padding=0, dilation=1, ceil_mode=False)
        (1): Conv2d(256, 512, kernel_size=(3, 3), stride=(1, 1), padding=(1, 1))
        (2): ReLU(inplace=True)
        (3): Conv2d(512, 512, kernel_size=(3, 3), stride=(1, 1), padding=(1, 1))
        (4): ReLU(inplace=True)
        (5): Conv2d(512, 512, kernel_size=(3, 3), stride=(1, 1), padding=(1, 1))
        (6): ReLU(inplace=True)
      )
      (slice5): Sequential(
        (0): MaxPool2d(kernel_size=2, stride=2, padding=0, dilation=1, ceil_mode=False)
        (1): Conv2d(512, 512, kernel_size=(3, 3), stride=(1, 1), padding=(1, 1))
        (2): ReLU(inplace=True)
        (3): Conv2d(512, 512, kernel_size=(3, 3), stride=(1, 1), padding=(1, 1))
        (4): ReLU(inplace=True)
        (5): Conv2d(512, 512, kernel_size=(3, 3), stride=(1, 1), padding=(1, 1))
        (6): ReLU(inplace=True)
      )
    )
    (lin0): NetLinLayer(
      (model): Sequential(
        (0): Dropout(p=0.5, inplace=False)
        (1): Conv2d(64, 1, kernel_size=(1, 1), stride=(1, 1), bias=False)
      )
    )
    (lin1): NetLinLayer(
      (model): Sequential(
        (0): Dropout(p=0.5, inplace=False)
        (1): Conv2d(128, 1, kernel_size=(1, 1), stride=(1, 1), bias=False)
      )
    )
    (lin2): NetLinLayer(
      (model): Sequential(
        (0): Dropout(p=0.5, inplace=False)
        (1): Conv2d(256, 1, kernel_size=(1, 1), stride=(1, 1), bias=False)
      )
    )
    (lin3): NetLinLayer(
      (model): Sequential(
        (0): Dropout(p=0.5, inplace=False)
        (1): Conv2d(512, 1, kernel_size=(1, 1), stride=(1, 1), bias=False)
      )
    )
    (lin4): NetLinLayer(
      (model): Sequential(
        (0): Dropout(p=0.5, inplace=False)
        (1): Conv2d(512, 1, kernel_size=(1, 1), stride=(1, 1), bias=False)
      )
    )
  )
)
[08:32:37.903091] Number of trainable parameters: 503.493761M
/ocean/projects/cis250277p/dsilva3/JiT/src/torch-fidelity/disc/lpips.py:89: FutureWarning: You are using `torch.load` with `weights_only=False` (the current default value), which uses the default pickle module implicitly. It is possible to construct malicious pic
…
